…
    "fc_bn": true,
    "attention_map": "FPA",
    "lse_gamma": 0.5,
    "fc_drop": 0,
    "optimizer": "Adam",
    "criterion": "BCE",
    "sensitive_criterion": "BCE",
    "lr": 0.0001,
    "lr_factor": 0.1,
    "lr_epochs": [
        2
    ],
    "momentum": 0.9,
    "weight_decay": 0.0,
    "best_target": "auc",
    "save_top_k": 3,
    "save_index": [
        0
    ]
}
----------------------------------------------------------------
        Layer (type)               Output Shape         Param #
================================================================
            Conv2d-1         [-1, 64, 256, 256]           9,408
       BatchNorm2d-2         [-1, 64, 256, 256]             128
              ReLU-3         [-1, 64, 256, 256]               0
         MaxPool2d-4         [-1, 64, 128, 128]               0
       BatchNorm2d-5         [-1, 64, 128, 128]             128
              ReLU-6         [-1, 64, 128, 128]               0
            Conv2d-7        [-1, 128, 128, 128]           8,192
       BatchNorm2d-8        [-1, 128, 128, 128]             256
              ReLU-9        [-1, 128, 128, 128]               0
           Conv2d-10         [-1, 32, 128, 128]          36,864
      BatchNorm2d-11         [-1, 96, 128, 128]             192
             ReLU-12         [-1, 96, 128, 128]               0
           Conv2d-13        [-1, 128, 128, 128]          12,288
      BatchNorm2d-14        [-1, 128, 128, 128]             256
             ReLU-15        [-1, 128, 128, 128]               0
           Conv2d-16         [-1, 32, 128, 128]          36,864
      BatchNorm2d-17        [-1, 128, 128, 128]             256
             ReLU-18        [-1, 128, 128, 128]               0
           Conv2d-19        [-1, 128, 128, 128]          16,384
      BatchNorm2d-20        [-1, 128, 128, 128]             256
             ReLU-21        [-1, 128, 128, 128]               0
           Conv2d-22         [-1, 32, 128, 128]          36,864
      BatchNorm2d-23        [-1, 160, 128, 128]             320
             ReLU-24        [-1, 160, 128, 128]               0
           Conv2d-25        [-1, 128, 128, 128]          20,480
      BatchNorm2d-26        [-1, 128, 128, 128]             256
             ReLU-27        [-1, 128, 128, 128]               0
           Conv2d-28         [-1, 32, 128, 128]          36,864
      BatchNorm2d-29        [-1, 192, 128, 128]             384
             ReLU-30        [-1, 192, 128, 128]               0
           Conv2d-31        [-1, 128, 128, 128]          24,576
      BatchNorm2d-32        [-1, 128, 128, 128]             256
             ReLU-33        [-1, 128, 128, 128]               0
           Conv2d-34         [-1, 32, 128, 128]          36,864
      BatchNorm2d-35        [-1, 224, 128, 128]             448
             ReLU-36        [-1, 224, 128, 128]               0
           Conv2d-37        [-1, 128, 128, 128]          28,672
      BatchNorm2d-38        [-1, 128, 128, 128]             256
             ReLU-39        [-1, 128, 128, 128]               0
           Conv2d-40         [-1, 32, 128, 128]          36,864
      BatchNorm2d-41        [-1, 256, 128, 128]             512
             ReLU-42        [-1, 256, 128, 128]               0
           Conv2d-43        [-1, 128, 128, 128]          32,768
        AvgPool2d-44          [-1, 128, 64, 64]               0
      BatchNorm2d-45          [-1, 128, 64, 64]             256
             ReLU-46          [-1, 128, 64, 64]               0
           Conv2d-47          [-1, 128, 64, 64]          16,384
      BatchNorm2d-48          [-1, 128, 64, 64]             256
             ReLU-49          [-1, 128, 64, 64]               0
           Conv2d-50           [-1, 32, 64, 64]          36,864
      BatchNorm2d-51          [-1, 160, 64, 64]             320
             ReLU-52          [-1, 160, 64, 64]               0
           Conv2d-53          [-1, 128, 64, 64]          20,480
      BatchNorm2d-54          [-1, 128, 64, 64]             256
             ReLU-55          [-1, 128, 64, 64]               0
           Conv2d-56           [-1, 32, 64, 64]          36,864
      BatchNorm2d-57          [-1, 192, 64, 64]             384
             ReLU-58          [-1, 192, 64, 64]               0
           Conv2d-59          [-1, 128, 64, 64]          24,576
      BatchNorm2d-60          [-1, 128, 64, 64]             256
             ReLU-61          [-1, 128, 64, 64]               0
           Conv2d-62           [-1, 32, 64, 64]          36,864
      BatchNorm2d-63          [-1, 224, 64, 64]             448
             ReLU-64          [-1, 224, 64, 64]               0
           Conv2d-65          [-1, 128, 64, 64]          28,672
      BatchNorm2d-66          [-1, 128, 64, 64]             256
             ReLU-67          [-1, 128, 64, 64]               0
           Conv2d-68           [-1, 32, 64, 64]          36,864
      BatchNorm2d-69          [-1, 256, 64, 64]             512
             ReLU-70          [-1, 256, 64, 64]               0
           Conv2d-71          [-1, 128, 64, 64]          32,768
      BatchNorm2d-72          [-1, 128, 64, 64]             256
             ReLU-73          [-1, 128, 64, 64]               0
           Conv2d-74           [-1, 32, 64, 64]          36,864
      BatchNorm2d-75          [-1, 288, 64, 64]             576
             ReLU-76          [-1, 288, 64, 64]               0
           Conv2d-77          [-1, 128, 64, 64]          36,864
      BatchNorm2d-78          [-1, 128, 64, 64]             256
             ReLU-79          [-1, 128, 64, 64]               0
           Conv2d-80           [-1, 32, 64, 64]          36,864
      BatchNorm2d-81          [-1, 320, 64, 64]             640
             ReLU-82          [-1, 320, 64, 64]               0
           Conv2d-83          [-1, 128, 64, 64]          40,960
      BatchNorm2d-84          [-1, 128, 64, 64]             256
             ReLU-85          [-1, 128, 64, 64]               0
           Conv2d-86           [-1, 32, 64, 64]          36,864
      BatchNorm2d-87          [-1, 352, 64, 64]             704
             ReLU-88          [-1, 352, 64, 64]               0
           Conv2d-89          [-1, 128, 64, 64]          45,056
      BatchNorm2d-90          [-1, 128, 64, 64]             256
             ReLU-91          [-1, 128, 64, 64]               0
           Conv2d-92           [-1, 32, 64, 64]          36,864
      BatchNorm2d-93          [-1, 384, 64, 64]             768
             ReLU-94          [-1, 384, 64, 64]               0
           Conv2d-95          [-1, 128, 64, 64]          49,152
      BatchNorm2d-96          [-1, 128, 64, 64]             256
             ReLU-97          [-1, 128, 64, 64]               0
           Conv2d-98           [-1, 32, 64, 64]          36,864
      BatchNorm2d-99          [-1, 416, 64, 64]             832
            ReLU-100          [-1, 416, 64, 64]               0
          Conv2d-101          [-1, 128, 64, 64]          53,248
     BatchNorm2d-102          [-1, 128, 64, 64]             256
            ReLU-103          [-1, 128, 64, 64]               0
          Conv2d-104           [-1, 32, 64, 64]          36,864
     BatchNorm2d-105          [-1, 448, 64, 64]             896
            ReLU-106          [-1, 448, 64, 64]               0
          Conv2d-107          [-1, 128, 64, 64]          57,344
     BatchNorm2d-108          [-1, 128, 64, 64]             256
            ReLU-109          [-1, 128, 64, 64]               0
          Conv2d-110           [-1, 32, 64, 64]          36,864
     BatchNorm2d-111          [-1, 480, 64, 64]             960
            ReLU-112          [-1, 480, 64, 64]               0
          Conv2d-113          [-1, 128, 64, 64]          61,440
     BatchNorm2d-114          [-1, 128, 64, 64]             256
            ReLU-115          [-1, 128, 64, 64]               0
          Conv2d-116           [-1, 32, 64, 64]          36,864
     BatchNorm2d-117          [-1, 512, 64, 64]           1,024
            ReLU-118          [-1, 512, 64, 64]               0
          Conv2d-119          [-1, 256, 64, 64]         131,072
       AvgPool2d-120          [-1, 256, 32, 32]               0
     BatchNorm2d-121          [-1, 256, 32, 32]             512
            ReLU-122          [-1, 256, 32, 32]               0
          Conv2d-123          [-1, 128, 32, 32]          32,768
     BatchNorm2d-124          [-1, 128, 32, 32]             256
            ReLU-125          [-1, 128, 32, 32]               0
          Conv2d-126           [-1, 32, 32, 32]          36,864
     BatchNorm2d-127          [-1, 288, 32, 32]             576
            ReLU-128          [-1, 288, 32, 32]               0
          Conv2d-129          [-1, 128, 32, 32]          36,864
     BatchNorm2d-130          [-1, 128, 32, 32]             256
            ReLU-131          [-1, 128, 32, 32]               0
          Conv2d-132           [-1, 32, 32, 32]          36,864
     BatchNorm2d-133          [-1, 320, 32, 32]             640
            ReLU-134          [-1, 320, 32, 32]               0
          Conv2d-135          [-1, 128, 32, 32]          40,960
     BatchNorm2d-136          [-1, 128, 32, 32]             256
            ReLU-137          [-1, 128, 32, 32]               0
          Conv2d-138           [-1, 32, 32, 32]          36,864
     BatchNorm2d-139          [-1, 352, 32, 32]             704
            ReLU-140          [-1, 352, 32, 32]               0
          Conv2d-141          [-1, 128, 32, 32]          45,056
     BatchNorm2d-142          [-1, 128, 32, 32]             256
            ReLU-143          [-1, 128, 32, 32]               0
          Conv2d-144           [-1, 32, 32, 32]          36,864
     BatchNorm2d-145          [-1, 384, 32, 32]             768
            ReLU-146          [-1, 384, 32, 32]               0
          Conv2d-147          [-1, 128, 32, 32]          49,152
     BatchNorm2d-148          [-1, 128, 32, 32]             256
            ReLU-149          [-1, 128, 32, 32]               0
          Conv2d-150           [-1, 32, 32, 32]          36,864
     BatchNorm2d-151          [-1, 416, 32, 32]             832
            ReLU-152          [-1, 416, 32, 32]               0
          Conv2d-153          [-1, 128, 32, 32]          53,248
     BatchNorm2d-154          [-1, 128, 32, 32]             256
            ReLU-155          [-1, 128, 32, 32]               0
          Conv2d-156           [-1, 32, 32, 32]          36,864
     BatchNorm2d-157          [-1, 448, 32, 32]             896
            ReLU-158          [-1, 448, 32, 32]               0
          Conv2d-159          [-1, 128, 32, 32]          57,344
     BatchNorm2d-160          [-1, 128, 32, 32]             256
            ReLU-161          [-1, 128, 32, 32]               0
          Conv2d-162           [-1, 32, 32, 32]          36,864
     BatchNorm2d-163          [-1, 480, 32, 32]             960
            ReLU-164          [-1, 480, 32, 32]               0
          Conv2d-165          [-1, 128, 32, 32]          61,440
     BatchNorm2d-166          [-1, 128, 32, 32]             256
            ReLU-167          [-1, 128, 32, 32]               0
          Conv2d-168           [-1, 32, 32, 32]          36,864
     BatchNorm2d-169          [-1, 512, 32, 32]           1,024
            ReLU-170          [-1, 512, 32, 32]               0
          Conv2d-171          [-1, 128, 32, 32]          65,536
     BatchNorm2d-172          [-1, 128, 32, 32]             256
            ReLU-173          [-1, 128, 32, 32]               0
          Conv2d-174           [-1, 32, 32, 32]          36,864
     BatchNorm2d-175          [-1, 544, 32, 32]           1,088
            ReLU-176          [-1, 544, 32, 32]               0
          Conv2d-177          [-1, 128, 32, 32]          69,632
     BatchNorm2d-178          [-1, 128, 32, 32]             256
            ReLU-179          [-1, 128, 32, 32]               0
          Conv2d-180           [-1, 32, 32, 32]          36,864
     BatchNorm2d-181          [-1, 576, 32, 32]           1,152
            ReLU-182          [-1, 576, 32, 32]               0
          Conv2d-183          [-1, 128, 32, 32]          73,728
     BatchNorm2d-184          [-1, 128, 32, 32]             256
            ReLU-185          [-1, 128, 32, 32]               0
          Conv2d-186           [-1, 32, 32, 32]          36,864
     BatchNorm2d-187          [-1, 608, 32, 32]           1,216
            ReLU-188          [-1, 608, 32, 32]               0
          Conv2d-189          [-1, 128, 32, 32]          77,824
     BatchNorm2d-190          [-1, 128, 32, 32]             256
            ReLU-191          [-1, 128, 32, 32]               0
          Conv2d-192           [-1, 32, 32, 32]          36,864
     BatchNorm2d-193          [-1, 640, 32, 32]           1,280
            ReLU-194          [-1, 640, 32, 32]               0
          Conv2d-195          [-1, 128, 32, 32]          81,920
     BatchNorm2d-196          [-1, 128, 32, 32]             256
            ReLU-197          [-1, 128, 32, 32]               0
          Conv2d-198           [-1, 32, 32, 32]          36,864
     BatchNorm2d-199          [-1, 672, 32, 32]           1,344
            ReLU-200          [-1, 672, 32, 32]               0
          Conv2d-201          [-1, 128, 32, 32]          86,016
     BatchNorm2d-202          [-1, 128, 32, 32]             256
            ReLU-203          [-1, 128, 32, 32]               0
          Conv2d-204           [-1, 32, 32, 32]          36,864
     BatchNorm2d-205          [-1, 704, 32, 32]           1,408
            ReLU-206          [-1, 704, 32, 32]               0
          Conv2d-207          [-1, 128, 32, 32]          90,112
     BatchNorm2d-208          [-1, 128, 32, 32]             256
            ReLU-209          [-1, 128, 32, 32]               0
          Conv2d-210           [-1, 32, 32, 32]          36,864
     BatchNorm2d-211          [-1, 736, 32, 32]           1,472
            ReLU-212          [-1, 736, 32, 32]               0
          Conv2d-213          [-1, 128, 32, 32]          94,208
     BatchNorm2d-214          [-1, 128, 32, 32]             256
            ReLU-215          [-1, 128, 32, 32]               0
          Conv2d-216           [-1, 32, 32, 32]          36,864
     BatchNorm2d-217          [-1, 768, 32, 32]           1,536
            ReLU-218          [-1, 768, 32, 32]               0
          Conv2d-219          [-1, 128, 32, 32]          98,304
     BatchNorm2d-220          [-1, 128, 32, 32]             256
            ReLU-221          [-1, 128, 32, 32]               0
          Conv2d-222           [-1, 32, 32, 32]          36,864
     BatchNorm2d-223          [-1, 800, 32, 32]           1,600
            ReLU-224          [-1, 800, 32, 32]               0
          Conv2d-225          [-1, 128, 32, 32]         102,400
     BatchNorm2d-226          [-1, 128, 32, 32]             256
            ReLU-227          [-1, 128, 32, 32]               0
          Conv2d-228           [-1, 32, 32, 32]          36,864
     BatchNorm2d-229          [-1, 832, 32, 32]           1,664
            ReLU-230          [-1, 832, 32, 32]               0
          Conv2d-231          [-1, 128, 32, 32]         106,496
     BatchNorm2d-232          [-1, 128, 32, 32]             256
            ReLU-233          [-1, 128, 32, 32]               0
          Conv2d-234           [-1, 32, 32, 32]          36,864
     BatchNorm2d-235          [-1, 864, 32, 32]           1,728
            ReLU-236          [-1, 864, 32, 32]               0
          Conv2d-237          [-1, 128, 32, 32]         110,592
     BatchNorm2d-238          [-1, 128, 32, 32]             256
            ReLU-239          [-1, 128, 32, 32]               0
          Conv2d-240           [-1, 32, 32, 32]          36,864
     BatchNorm2d-241          [-1, 896, 32, 32]           1,792
            ReLU-242          [-1, 896, 32, 32]               0
          Conv2d-243          [-1, 128, 32, 32]         114,688
     BatchNorm2d-244          [-1, 128, 32, 32]             256
            ReLU-245          [-1, 128, 32, 32]               0
          Conv2d-246           [-1, 32, 32, 32]          36,864
     BatchNorm2d-247          [-1, 928, 32, 32]           1,856
            ReLU-248          [-1, 928, 32, 32]               0
          Conv2d-249          [-1, 128, 32, 32]         118,784
     BatchNorm2d-250          [-1, 128, 32, 32]             256
            ReLU-251          [-1, 128, 32, 32]               0
          Conv2d-252           [-1, 32, 32, 32]          36,864
     BatchNorm2d-253          [-1, 960, 32, 32]           1,920
            ReLU-254          [-1, 960, 32, 32]               0
          Conv2d-255          [-1, 128, 32, 32]         122,880
     BatchNorm2d-256          [-1, 128, 32, 32]             256
            ReLU-257          [-1, 128, 32, 32]               0
          Conv2d-258           [-1, 32, 32, 32]          36,864
     BatchNorm2d-259          [-1, 992, 32, 32]           1,984
            ReLU-260          [-1, 992, 32, 32]               0
          Conv2d-261          [-1, 128, 32, 32]         126,976
     BatchNorm2d-262          [-1, 128, 32, 32]             256
            ReLU-263          [-1, 128, 32, 32]               0
          Conv2d-264           [-1, 32, 32, 32]          36,864
     BatchNorm2d-265         [-1, 1024, 32, 32]           2,048
            ReLU-266         [-1, 1024, 32, 32]               0
          Conv2d-267          [-1, 512, 32, 32]         524,288
       AvgPool2d-268          [-1, 512, 16, 16]               0
     BatchNorm2d-269          [-1, 512, 16, 16]           1,024
            ReLU-270          [-1, 512, 16, 16]               0
          Conv2d-271          [-1, 128, 16, 16]          65,536
     BatchNorm2d-272          [-1, 128, 16, 16]             256
            ReLU-273          [-1, 128, 16, 16]               0
          Conv2d-274           [-1, 32, 16, 16]          36,864
     BatchNorm2d-275          [-1, 544, 16, 16]           1,088
            ReLU-276          [-1, 544, 16, 16]               0
          Conv2d-277          [-1, 128, 16, 16]          69,632
     BatchNorm2d-278          [-1, 128, 16, 16]             256
            ReLU-279          [-1, 128, 16, 16]               0
          Conv2d-280           [-1, 32, 16, 16]          36,864
     BatchNorm2d-281          [-1, 576, 16, 16]           1,152
            ReLU-282          [-1, 576, 16, 16]               0
          Conv2d-283          [-1, 128, 16, 16]          73,728
     BatchNorm2d-284          [-1, 128, 16, 16]             256
            ReLU-285          [-1, 128, 16, 16]               0
          Conv2d-286           [-1, 32, 16, 16]          36,864
     BatchNorm2d-287          [-1, 608, 16, 16]           1,216
            ReLU-288          [-1, 608, 16, 16]               0
          Conv2d-289          [-1, 128, 16, 16]          77,824
     BatchNorm2d-290          [-1, 128, 16, 16]             256
            ReLU-291          [-1, 128, 16, 16]               0
          Conv2d-292           [-1, 32, 16, 16]          36,864
     BatchNorm2d-293          [-1, 640, 16, 16]           1,280
            ReLU-294          [-1, 640, 16, 16]               0
          Conv2d-295          [-1, 128, 16, 16]          81,920
     BatchNorm2d-296          [-1, 128, 16, 16]             256
            ReLU-297          [-1, 128, 16, 16]               0
          Conv2d-298           [-1, 32, 16, 16]          36,864
     BatchNorm2d-299          [-1, 672, 16, 16]           1,344
            ReLU-300          [-1, 672, 16, 16]               0
          Conv2d-301          [-1, 128, 16, 16]          86,016
     BatchNorm2d-302          [-1, 128, 16, 16]             256
            ReLU-303          [-1, 128, 16, 16]               0
          Conv2d-304           [-1, 32, 16, 16]          36,864
     BatchNorm2d-305          [-1, 704, 16, 16]           1,408
            ReLU-306          [-1, 704, 16, 16]               0
          Conv2d-307          [-1, 128, 16, 16]          90,112
     BatchNorm2d-308          [-1, 128, 16, 16]             256
            ReLU-309          [-1, 128, 16, 16]               0
          Conv2d-310           [-1, 32, 16, 16]          36,864
     BatchNorm2d-311          [-1, 736, 16, 16]           1,472
            ReLU-312          [-1, 736, 16, 16]               0
          Conv2d-313          [-1, 128, 16, 16]          94,208
     BatchNorm2d-314          [-1, 128, 16, 16]             256
            ReLU-315          [-1, 128, 16, 16]               0
          Conv2d-316           [-1, 32, 16, 16]          36,864
     BatchNorm2d-317          [-1, 768, 16, 16]           1,536
            ReLU-318          [-1, 768, 16, 16]               0
          Conv2d-319          [-1, 128, 16, 16]          98,304
     BatchNorm2d-320          [-1, 128, 16, 16]             256
            ReLU-321          [-1, 128, 16, 16]               0
          Conv2d-322           [-1, 32, 16, 16]          36,864
     BatchNorm2d-323          [-1, 800, 16, 16]           1,600
            ReLU-324          [-1, 800, 16, 16]               0
          Conv2d-325          [-1, 128, 16, 16]         102,400
     BatchNorm2d-326          [-1, 128, 16, 16]             256
            ReLU-327          [-1, 128, 16, 16]               0
          Conv2d-328           [-1, 32, 16, 16]          36,864
     BatchNorm2d-329          [-1, 832, 16, 16]           1,664
            ReLU-330          [-1, 832, 16, 16]               0
          Conv2d-331          [-1, 128, 16, 16]         106,496
     BatchNorm2d-332          [-1, 128, 16, 16]             256
            ReLU-333          [-1, 128, 16, 16]               0
          Conv2d-334           [-1, 32, 16, 16]          36,864
     BatchNorm2d-335          [-1, 864, 16, 16]           1,728
            ReLU-336          [-1, 864, 16, 16]               0
          Conv2d-337          [-1, 128, 16, 16]         110,592
     BatchNorm2d-338          [-1, 128, 16, 16]             256
            ReLU-339          [-1, 128, 16, 16]               0
          Conv2d-340           [-1, 32, 16, 16]          36,864
     BatchNorm2d-341          [-1, 896, 16, 16]           1,792
            ReLU-342          [-1, 896, 16, 16]               0
          Conv2d-343          [-1, 128, 16, 16]         114,688
     BatchNorm2d-344          [-1, 128, 16, 16]             256
            ReLU-345          [-1, 128, 16, 16]               0
          Conv2d-346           [-1, 32, 16, 16]          36,864
     BatchNorm2d-347          [-1, 928, 16, 16]           1,856
            ReLU-348          [-1, 928, 16, 16]               0
          Conv2d-349          [-1, 128, 16, 16]         118,784
     BatchNorm2d-350          [-1, 128, 16, 16]             256
            ReLU-351          [-1, 128, 16, 16]               0
          Conv2d-352           [-1, 32, 16, 16]          36,864
     BatchNorm2d-353          [-1, 960, 16, 16]           1,920
            ReLU-354          [-1, 960, 16, 16]               0
          Conv2d-355          [-1, 128, 16, 16]         122,880
     BatchNorm2d-356          [-1, 128, 16, 16]             256
            ReLU-357          [-1, 128, 16, 16]               0
          Conv2d-358           [-1, 32, 16, 16]          36,864
     BatchNorm2d-359          [-1, 992, 16, 16]           1,984
            ReLU-360          [-1, 992, 16, 16]               0
          Conv2d-361          [-1, 128, 16, 16]         126,976
     BatchNorm2d-362          [-1, 128, 16, 16]             256
            ReLU-363          [-1, 128, 16, 16]               0
          Conv2d-364           [-1, 32, 16, 16]          36,864
     BatchNorm2d-365         [-1, 1024, 16, 16]           2,048
        DenseNet-366         [-1, 1024, 16, 16]               0
AdaptiveAvgPool2d-367           [-1, 1024, 1, 1]               0
          Conv2d-368           [-1, 1024, 1, 1]       1,049,600
     BatchNorm2d-369           [-1, 1024, 1, 1]           2,048
            ReLU-370           [-1, 1024, 1, 1]               0
  Conv2dNormRelu-371           [-1, 1024, 1, 1]               0
          Conv2d-372         [-1, 1024, 16, 16]       1,049,600
     BatchNorm2d-373         [-1, 1024, 16, 16]           2,048
            ReLU-374         [-1, 1024, 16, 16]               0
  Conv2dNormRelu-375         [-1, 1024, 16, 16]               0
          Conv2d-376              [-1, 1, 8, 8]          50,177
     BatchNorm2d-377              [-1, 1, 8, 8]               2
            ReLU-378              [-1, 1, 8, 8]               0
  Conv2dNormRelu-379              [-1, 1, 8, 8]               0
          Conv2d-380              [-1, 1, 4, 4]              26
     BatchNorm2d-381              [-1, 1, 4, 4]               2
            ReLU-382              [-1, 1, 4, 4]               0
  Conv2dNormRelu-383              [-1, 1, 4, 4]               0
          Conv2d-384              [-1, 1, 2, 2]              10
     BatchNorm2d-385              [-1, 1, 2, 2]               2
            ReLU-386              [-1, 1, 2, 2]               0
  Conv2dNormRelu-387              [-1, 1, 2, 2]               0
          Conv2d-388              [-1, 1, 2, 2]              10
     BatchNorm2d-389              [-1, 1, 2, 2]               2
            ReLU-390              [-1, 1, 2, 2]               0
  Conv2dNormRelu-391              [-1, 1, 2, 2]               0
          Conv2d-392              [-1, 1, 4, 4]              26
     BatchNorm2d-393              [-1, 1, 4, 4]               2
            ReLU-394              [-1, 1, 4, 4]               0
  Conv2dNormRelu-395              [-1, 1, 4, 4]               0
          Conv2d-396              [-1, 1, 8, 8]              50
     BatchNorm2d-397              [-1, 1, 8, 8]               2
            ReLU-398              [-1, 1, 8, 8]               0
  Conv2dNormRelu-399              [-1, 1, 8, 8]               0
       FPAModule-400         [-1, 1024, 16, 16]               0
    AttentionMap-401         [-1, 1024, 16, 16]               0
          Conv2d-402            [-1, 1, 16, 16]           1,025
        PcamPool-403           [-1, 1024, 1, 1]               0
      GlobalPool-404           [-1, 1024, 1, 1]               0
     BatchNorm2d-405           [-1, 1024, 1, 1]           2,048
          Conv2d-406              [-1, 1, 1, 1]           1,025
        PcamPool-407           [-1, 1024, 1, 1]               0
      GlobalPool-408           [-1, 1024, 1, 1]               0
          Linear-409                    [-1, 1]           1,025
================================================================
Total params: 9,112,586
Trainable params: 9,112,586
Non-trainable params: 0
----------------------------------------------------------------
Input size (MB): 3.00
Forward/backward pass size (MB): 1551.09
Params size (MB): 34.76
Estimated Total Size (MB): 1588.85
----------------------------------------------------------------
INFO:root:2024-04-11 12:02:30, Train, Epoch : 1, Step : 10, Loss : 0.75938, Acc : 0.584, Sensitive_Loss : 1.18364, Sensitive_Acc : 6.400, Run Time : 10.45 sec
…
