…
    "lse_gamma": 0.5,
    "fc_drop": 0,
    "optimizer": "Adam",
    "criterion": "BCE",
    "lr": 0.0001,
    "lr_factor": 0.1,
    "lr_epochs": [
        2
    ],
    "momentum": 0.9,
    "weight_decay": 0.0,
    "best_target": "auc",
    "save_top_k": 3,
    "save_index": [
        0
    ]
}
===============================================================================================
Layer (type:depth-idx)                        Output Shape              Param #
===============================================================================================
├─DenseNet: 1-1                               [-1, 1024, 16, 16]        --
|    └─Sequential: 2-1                        [-1, 1024, 16, 16]        --
|    |    └─Conv2d: 3-1                       [-1, 64, 256, 256]        9,408
|    |    └─BatchNorm2d: 3-2                  [-1, 64, 256, 256]        128
|    |    └─ReLU: 3-3                         [-1, 64, 256, 256]        --
|    |    └─MaxPool2d: 3-4                    [-1, 64, 128, 128]        --
|    |    └─_DenseBlock: 3-5                  [-1, 256, 128, 128]       335,040
|    |    └─_Transition: 3-6                  [-1, 128, 64, 64]         33,280
|    |    └─_DenseBlock: 3-7                  [-1, 512, 64, 64]         919,680
|    |    └─_Transition: 3-8                  [-1, 256, 32, 32]         132,096
|    |    └─_DenseBlock: 3-9                  [-1, 1024, 32, 32]        2,837,760
|    |    └─_Transition: 3-10                 [-1, 512, 16, 16]         526,336
|    |    └─_DenseBlock: 3-11                 [-1, 1024, 16, 16]        2,158,080
|    |    └─BatchNorm2d: 3-12                 [-1, 1024, 16, 16]        2,048
├─AttentionMap: 1-2                           [-1, 1024, 16, 16]        --
|    └─FPAModule: 2-2                         [-1, 1024, 16, 16]        --
|    |    └─Sequential: 3-13                  [-1, 1024, 1, 1]          1,051,648
|    |    └─Conv2dNormRelu: 3-14              [-1, 1024, 16, 16]        1,051,648
|    |    └─Conv2dNormRelu: 3-15              [-1, 1, 8, 8]             50,179
|    |    └─Conv2dNormRelu: 3-16              [-1, 1, 4, 4]             28
|    |    └─Conv2dNormRelu: 3-17              [-1, 1, 2, 2]             12
|    |    └─Conv2dNormRelu: 3-18              [-1, 1, 2, 2]             12
|    |    └─Conv2dNormRelu: 3-19              [-1, 1, 4, 4]             28
|    |    └─Conv2dNormRelu: 3-20              [-1, 1, 8, 8]             52
├─Conv2d: 1-3                                 [-1, 1, 16, 16]           1,025
├─GlobalPool: 1-4                             [-1, 1024, 1, 1]          --
|    └─PcamPool: 2-3                          [-1, 1024, 1, 1]          --
├─BatchNorm2d: 1-5                            [-1, 1024, 1, 1]          2,048
├─Conv2d: 1-6                                 [-1, 1, 1, 1]             (recursive)
===============================================================================================
Total params: 9,110,536
Trainable params: 9,110,536
Non-trainable params: 0
Total mult-adds (G): 2.27
===============================================================================================
Input size (MB): 3.00
…
